flutter_application_1/.dart_tool/chrome-device/Default/optimization_guide_prediction_model_downloads/e4cb0a52-159f-4861-aeed-6bd2f80354eb/model.tflite (tflite, 407748 bytes, 166 tensors)

context_transformer_0/bottleneck_input/norm/add f4 [32]
0	0xbd9b732c	-0.07590327
1	0xbcf4d730	-0.029887766
2	0xbd59d270	-0.053179204
3	0x3baf4012	0.005348214
4	0x3c12c368	0.008957721
5	0xbd4cebbf	-0.050029512
6	0xbd03f556	-0.032216392
7	0x3df133b1	0.117774375
8	0x3c1bdd0a	0.009513149
9	0xbd8048cc	-0.06263885
10	0xbd51e4f4	-0.051243737
11	0xbd9a2ff0	-0.075286746
12	0x3e265b98	0.16245878
13	0xbd20fbea	-0.039302744
14	0xbda545a6	-0.08069925
15	0x3cc28098	0.023742959
16	0xbdb43802	-0.08799745
17	0xbc83eac0	-0.016103148
18	0xbcc4e976	-0.024037104
19	0xbd9244e6	-0.071420476
20	0xbab66f63	-0.0013918694
21	0xbd55f454	-0.052234963
22	0x3dc35888	0.0953837
23	0xbcc9ac7a	-0.024618376
24	0xbc8e5135	-0.017372707
25	0xbcecc7c5	-0.028903851
26	0xbc4e0f70	-0.012576923
27	0xbd02311b	-0.031785112
28	0xbcaa822b	-0.020814022
29	0x3cd9ce81	0.026587727
30	0x3dbac0a8	0.091187775
31	0xbd189f1a	-0.037261106

context_transformer_1/bottleneck_input/norm/add f4 [32]
0	0x3ce2087b	0.027591934
1	0xbdfde6df	-0.12397551
2	0x3cde4d6b	0.027136525
3	0xbdc278d5	-0.09495703
4	0x3b30a92c	0.0026956303
5	0xbcc2ec46	-0.023794305
6	0x3eb06491	0.34451726
7	0xbe221ff4	-0.15832502
8	0x3db4ace6	0.0882204
9	0x3ad5af09	0.0016302775
10	0x3e41130e	0.18854925
11	0x3da881e2	0.08227898
12	0x3e090d0e	0.13383886
13	0xbe877a18	-0.26460338
14	0xbe7c33f5	-0.24629195
15	0x3d064fdb	0.032791
16	0x3d0b28ac	0.033974335
17	0x3e0826e5	0.13296087
18	0xbda87aee	-0.08226572
19	0xbde4fb42	-0.11180736
20	0x3d840adf	0.06447386
21	0xbde9e066	-0.11419754
22	0x3d9c6846	0.07637076
23	0xbe01c375	-0.12672217
24	0x3de6289e	0.11238216
25	0xbcce3a80	-0.02517438
26	0x3c503abb	0.012709315
27	0x3e11efa7	0.14251576
28	0x3dabc3ae	0.08386932
29	0xbca18b3e	-0.019719716
30	0x3c2656e8	0.010152556
31	0xbd60b54e	-0.054860406

mention_transformer_0/bottleneck_input/norm/add f4 [32]
0	0xbe127090	-0.14300752
1	0xbe4446aa	-0.19167581
2	0xbdbe7bf0	-0.09300983
3	0xbd606ed2	-0.054793186
4	0xbdbea00c	-0.0930787
5	0x3e410b32	0.18851927
6	0xbe306c68	-0.17228854
7	0xbd9c43f0	-0.076301455
8	0xbe2c8e56	-0.16851172
9	0x3e2b768f	0.16744445
10	0x3cb44372	0.022004817
11	0xbca258c1	-0.019817712
12	0xbcd91bf6	-0.02650259
13	0x3c78f9f0	0.0151963085
14	0xbdbf162e	-0.09330402
15	0x3e172c60	0.14763021
16	0x3e62d32f	0.22150873
17	0xbe5d49d9	-0.21610202
18	0x3d453557	0.048146572
19	0xbdba2be0	-0.090904
20	0xbe0ca8cc	-0.13736266
21	0xbdda1cd2	-0.10650028
22	0xbdf48de2	-0.119411245
23	0xbe74492c	-0.23856038
24	0xbe045b8d	-0.12925549
25	0x3d270ab8	0.040781707
26	0x3d3450b8	0.044022292
27	0x3e433f79	0.19067182
28	0xbe44aff4	-0.19207746
29	0xbe65d3ae	-0.2244403
30	0x3d26b85e	0.04070317
31	0xbdf9b081	-0.121918686

mention_transformer_1/bottleneck_input/norm/add f4 [32]
0	0x3e85a519	0.26102522
1	0xbe77d4b6	-0.24202237
2	0xbda2bff7	-0.07946771
3	0x3d69bb9c	0.057063684
4	0x3e0fdc84	0.14048964
5	0xbe22f26e	-0.15912792
6	0xbe18f6b9	-0.14937867
7	0xbd7bc228	-0.06146446
8	0xbe1e69b0	-0.15470004
9	0xbec8ee31	-0.39244226
10	0xbe2bfa6c	-0.16794747
11	0x3df8f6df	0.12156462
12	0x3e068406	0.131363
13	0x3e87b715	0.26506868
14	0x3e718c70	0.23588729
15	0x3e4eecf7	0.20207582
16	0x3e05301e	0.13006637
17	0xbcd46d24	-0.025930949
18	0xbd87a4c4	-0.066232234
19	0x3ee3cfcc	0.44494474
20	0x3f0a17d5	0.53942615
21	0xbdc2c5cb	-0.09510382
22	0xbe64b91a	-0.22336236
23	0xbe07c50f	-0.13258766
24	0x3ec92e60	0.39293194
25	0xbe7d9f83	-0.2476788
26	0xbdf7840c	-0.12085733
27	0xbed8b691	-0.42326787
28	0xbdc09217	-0.094028644
29	0x3e0c5994	0.13706046
30	0xbe8ee38e	-0.27907985
31	0xbd83e5da	-0.06440325

context_transformer_0/attention/value/add;context_transformer_0/attention/value/einsum/Einsum;context_transformer_0/attention/value/add/ReadVariableOp/resource f4 [32]
0	0x3ba3613a	0.0049859555
1	0xbdb04d75	-0.08608524
2	0xbcf6eeba	-0.03014313
3	0x3c8b4479	0.017000424
4	0x3d47d3cc	0.04878597
5	0x3d16693f	0.036721464
6	0x3d7331fb	0.059373837
7	0x3d069753	0.032859158
8	0xbd724fe3	-0.059158217
9	0xbcdc841e	-0.026918467
10	0xbc5e9bd4	-0.013586957
11	0xbc3ac0b7	-0.011398486
12	0xbc9bb4c5	-0.019007096
13	0xbce9f1ac	-0.028557621
14	0xbba6032b	-0.0050662956
15	0x3d548cb6	0.051892005
16	0x3d849dcc	0.0647541
17	0xbbac814e	-0.0052644378
18	0x3c563fb6	0.013076713
19	0x3dbdd5e2	0.092693105
20	0xbd89a937	-0.06721728
21	0x3ba70436	0.0050969375
22	0xbd1e4bce	-0.03864651
23	0xbc9356cc	-0.017985724
24	0x3c7fbb5d	0.015608636
25	0x3da9bf79	0.08288474
26	0x3dcfe4e5	0.1015108
27	0x3d16e7dc	0.036842212
28	0xbd26b4a6	-0.040699624
29	0xbd87cd62	-0.066309705
30	0xbba264b9	-0.0049558547
31	0x3d509cd4	0.050930813

context_transformer_0/bottleneck_input/norm/mul f4 [32, 32]
0	0x3e2e57b2	0.1702564
1	0x3caed257	0.021340532
2	0x3e825449	0.2545493
3	0xbeb1c78f	-0.34722564
4	0xbe169a2d	-0.14707251
5	0x3ea8dfcf	0.32983252
6	0x3e5753d3	0.2102807
7	0xbe87ba8b	-0.26509508
8	0x3dde43a3	0.108527444
9	0xbeb0e62e	-0.34550613
10	0xbde3ba81	-0.11119557
11	0xbe6b1424	-0.22956902
12	0x3e4a1bb0	0.19737124
13	0x3e945158	0.2896831
14	0xbca14a0d	-0.01968863
15	0x3ebd37ed	0.3695673
16	0xbd909b85	-0.07060913
17	0x3e0aa314	0.13538772
18	0xbe0e350c	-0.13887423
19	0xbdbeb3b3	-0.09311619
20	0xbd8c84c9	-0.06861264
21	0x3deb4bd4	0.114890724
22	0x3e2487ea	0.16067472
23	0xbc8cbf98	-0.017181203
24	0x3db42e28	0.08797866
25	0x3cd09bb3	0.025464868
26	0xbe8215c2	-0.25407225
27	0x3e09bffd	0.13452144
28	0x3f824a7c	1.0178981
29	0x3dcd456f	0.10023009
30	0xbd8bd8f3	-0.06828489
31	0xbbd6eeb8	-0.006559219
32	0xbe535cda	-0.20640889
33	0xbd698269	-0.057009134
34	0xbe27f254	-0.16401035
35	0x3e00e56c	0.12587517
36	0xbe9a030a	-0.30080444
37	0xbc3712a0	-0.011173874
38	0x3c1f9e25	0.009742294
39	0xbe805de7	-0.25071642
40	0xbeb1bf13	-0.3471609
41	0xbe553d61	-0.20824195
42	0x3e87f482	0.26553732
43	0xbeff3c0d	-0.49850503
44	0xbe4cac90	-0.19987702
45	0x3e53f8dc	0.20700401
46	0xbd5825fc	-0.0527706
47	0xbe0b072a	-0.13576952
48	0x3db9f73b	0.090803586
49	0x3d7045ce	0.05866032
50	0xbe3307c8	-0.17483437
51	0x3df4b768	0.119490445
52	0x3e44f731	0.19234921
53	0x3f0739b7	0.5282244
54	0xbe831fe8	-0.2561028
55	0xbdda763c	-0.10667083
56	0x3d4d9c48	0.05019787
57	0x3e155f40	0.14587116
58	0x3e90a303	0.28249368
59	0x3e1f0ddb	0.15532629
60	0x3f2e4da1	0.680872
61	0xbd0f406b	-0.034973543
62	0x3cb6c613	0.022311246
63	0xbe1652fd	-0.14680095
64	0x3db8954b	0.090128504
65	0xbd35e3e9	-0.044406805
66	0x3e54fa9c	0.20798725
67	0xbe4704b5	-0.1943539
68	0x3e3df447	0.18550216
69	0x3e5bc89f	0.2146325
70	0xbda417c3	-0.08012345
71	0xbcb151d1	-0.021645458
72	0xbe2665ae	-0.16249725
73	0xbda66e05	-0.08126453
74	0xbe6a0348	-0.22852814
75	0x3dbf7194	0.09347835
76	0xbddb367f	-0.10703754
77	0x3ac9e0c8	0.0015402073
78	0xbdddb01c	-0.10824606
79	0x3d11789f	0.035515424
80	0xbe3fd1c9	-0.1873237
81	0xbd0b525f	-0.034014102
82	0x3e02e2ed	0.12781878
83	0x3caf09ac	0.021366917
84	0xbe89df5a	-0.26928216
85	0xbdc4e263	-0.09613492
86	0xbe63aba9	-0.22233452
87	0xbc93260f	-0.017962484
88	0xbcf7f0e5	-0.030266235
89	0x3d1b5169	0.037919436
90	0xbda5d692	-0.08097567
91	0xbe3c022c	-0.18360204
92	0xbd98c95a	-0.0746028
93	0xbd215377	-0.03938624
94	0xbe46a182	-0.19397548
95	0x3c6fb636	0.014630845
96	0xbbf4e9e2	-0.00747417
97	0xbbc5ced1	-0.0060366173
98	0x3f0f5bfa	0.5599972
99	0x3e2695eb	0.16268127
100	0x3dfebb79	0.12438101
101	0x3e0f1b9f	0.1397538
102	0x3ea93281	0.33046344
103	0xbdd80a61	-0.105488546
104	0x3e2c6470	0.16835189
105	0xbd99f231	-0.075168975
106	0x3f16dff3	0.5893547
107	0xbdbf944b	-0.093544565
108	0xbdaaee74	-0.083462626
109	0xbe68c85a	-0.22732678
110	0x3e754bc8	0.2395469
111	0x3d5c55fd	0.053792942
112	0x3e9fb4ce	0.3119263
113	0xbd9e38a0	-0.07725644
114	0xbc2ab1fd	-0.010418412
115	0xb9862cd2	-0.00025591865
116	0xbaf98312	-0.0019036254
117	0x3e39817e	0.18115804
118	0xbe44997b	-0.19199173
119	0x3e1d4419	0.15358008
120	0x3e8a4578	0.27006125
121	0xbd9dc770	-0.07704055
122	0x3d21e6bc	0.039526686
123	0xbe533927	-0.2062727
124	0x3e96dc02	0.29464728
125	0x3e4b7042	0.19867042
126	0x3e34814c	0.17627448
127	0x3e6638ed	0.22482653
128	0x3ebbe8d1	0.36701062
129	0xbe50e1ad	-0.20398588
130	0x3e5119c2	0.20419982
131	0xbde2e1aa	-0.11078198
132	0xbdfa373f	-0.122175686
133	0x3decc921	0.115618
134	0x3eaf01c1	0.34181026
135	0xbe5413d1	-0.20710684
136	0xbdf1b772	-0.118025675
137	0x3a32554e	0.00068028725
138	0xbd345fb6	-0.04403659
139	0x3e361c34	0.17784196
140	0xbe07c289	-0.13257803
141	0xbd48340d	-0.048877764
142	0xbe845d4d	-0.25852433
143	0xbdcac9b2	-0.099017516
144	0xbde9e868	-0.11421281
145	0xbe190f3a	-0.14947215
146	0x3e04a848	0.12954819
147	0x3e2ed97e	0.17075154
148	0xbdcd93c4	-0.1003795
149	0x3eb40516	0.3516013
150	0x3f0a7493	0.5408413
151	0xbe91c92f	-0.28473803
152	0x3d06554f	0.0327962
153	0x3cafc49a	0.021456052
154	0xbdb4a040	-0.08819628
155	0x3e9df492	0.30850655
156	0xbdd590ab	-0.10427984
157	0xbe9e93d5	-0.30972162
158	0xbdab9d6f	-0.083796374
159	0x3d4c240b	0.04983906
160	0xbf256ba0	-0.6461735
161	0x3e6d0927	0.23148023
162	0xbe2b8130	-0.167485
163	0xbcbc321c	-0.022973113
164	0xbe1589de	-0.14603373
165	0x3d31562b	0.043295067
166	0xbe2b5926	-0.16733226
167	0x3e447a5e	0.19187304
168	0xbe08b4dd	-0.13350244
169	0xbec7a8d6	-0.38996
170	0x3c9e0a70	0.019292086
171	0xbda1861f	-0.0788691
172	0xbe235e10	-0.15953851
173	0xbe21eea7	-0.15813695
174	0x3ec2731e	0.37978452
175	0xbc2b7083	-0.010463837
176	0x3e0352dc	0.12824577
177	0xbbc0d369	-0.005884577
178	0xbe17b7bc	-0.14816183
179	0x3e8f4e34	0.27989352
180	0x3dfa6cd9	0.12227792
181	0x3e81c7a9	0.2534764
182	0xbe8565c7	-0.26054212
183	0x3df950b7	0.12173598
184	0x3e243d5f	0.16039036
185	0x3dec8722	0.11549212
186	0x3d2dc1a2	0.04242099
187	0x3e328c73	0.1743639
188	0x3da1f768	0.07908517
189	0xbd55019d	-0.05200349
190	0xbe1b741a	-0.15181008
191	0x3eafe482	0.34354025
192	0x3d71544d	0.058918286
193	0xbd4bca9d	-0.049753774
194	0xbcf209f8	-0.02954577
195	0xbe688299	-0.22706069
196	0xbdbf8281	-0.093510635
197	0xbe0f2616	-0.13979372
198	0xbdc056f6	-0.093915865
199	0xbdf5bb49	-0.119986124
200	0x3d1a418f	0.037660178
201	0x3d1b27ff	0.03787994
202	0xbdcf8a04	-0.10133746
203	0xbd859811	-0.06523145
204	0xbd9132d1	-0.070897706
205	0x3ca53e99	0.02017145
206	0xbd8676b9	-0.06565613
207	0xbe23e230	-0.16004252
208	0xbe2c856f	-0.16847776
209	0x3e57a0b0	0.21057391
210	0xbd29b459	-0.04143176
211	0xbe10f101	-0.14154436
212	0xbd7ff029	-0.062484894
213	0x3d057da5	0.032590527
214	0xbe061364	-0.13093334
215	0xbe4643d3	-0.1936181
216	0x3e88a903	0.26691446
217	0xbc99d9e1	-0.01878065
218	0xbdbf26d1	-0.093335755
219	0xbd72c8e6	-0.059273623
220	0xbda3fc1e	-0.08007072
221	0xbdae0eeb	-0.08498939
222	0x3d50a542	0.050938852
223	0x3d33da5c	0.043909416
224	0xbe78f5d9	-0.24312533
225	0x3dda259d	0.106517054
226	0x3e9d66e8	0.30742574
227	0xbeb542e8	-0.35402608
228	0x3c2ad8a9	0.010427632
229	0xbd8f5ebd	-0.07000492
230	0x3d365b1b	0.04452048
231	0x3e9a9d44	0.3019811
232	0x3b7dc616	0.0038722805
233	0xbec77e53	-0.38963565
234	0xbe15379d	-0.14571996
235	0x3e0b7420	0.13618517
236	0x3e808cb4	0.25107348
237	0x3deb493a	0.11488576
238	0xbd12e614	-0.03586395
239	0x3ed3e877	0.41388294
240	0x3d808606	0.06275563
241	0x3e1b3a25	0.15158899
242	0xbe493c7b	-0.19651978
243	0x3e64e5d5	0.22353299
244	0xbdb0ed67	-0.08639031
245	0xbe6cc516	-0.23122057
246	0xbb12e5e3	-0.0022414855
247	0xbd86aa96	-0.065755054
248	0xbc727b1c	-0.014799859
249	0xbce5633f	-0.028001426
250	0xbd8d085d	-0.06886361
251	0x3da17667	0.078839116
252	0xbe37fddd	-0.17967935
253	0x3e1ee19b	0.15515749
254	0x3d7eb071	0.062179986
255	0xbe21a2c2	-0.15784743

context_transformer_0/kq_shared_bottleneck/norm/mul;context_transformer_0/kq_shared_bottleneck/norm/add;context_transformer_0/attention/key/einsum/Einsum;context_transformer_0/attention/key/add;context_transformer_0/attention/value/einsum/Einsum;context_transformer_0/attention/key/add/ReadVariableOp/resource f4 [32]
0	0xbd3bd2b9	-0.045855258
1	0x3e3f9b64	0.1871162
2	0x3ddb8b8c	0.10719976
3	0x3dfd06c5	0.12354807
4	0xbe3a83d8	-0.18214357
5	0xbe49339b	-0.19648592
6	0xbe60f73f	-0.21969317
7	0xbdbfcacc	-0.09364852
8	0x3e1e7abf	0.15476511
9	0xbcf88c56	-0.030340355
10	0x3bdea1d1	0.0067941924
11	0x3d81c552	0.06336464
12	0xbd197515	-0.037465174
13	0x3e2041bd	0.15650077
14	0x3d2fcd6d	0.04292052
15	0xbc1645b0	-0.009171888
16	0x3e1e6525	0.15468271
17	0xbdf76059	-0.12078924
18	0xbe60208f	-0.2188742
19	0xbdc5e3f3	-0.096626185
20	0x3e88ced5	0.267203
21	0xbb1c3a9b	-0.0023838643
22	0xbdf85ab9	-0.12126679
23	0xbe7e5144	-0.24835688
24	0xbc40172b	-0.011724274
25	0x3c4640ef	0.012100442
26	0xbd242f12	-0.040083952
27	0x3d860f1a	0.06545849
28	0x3da9b6f7	0.08286851
29	0xbd574129	-0.052552376
30	0xbd128460	-0.035770774
31	0x3dbf8d01	0.09353066

context_transformer_0/kq_shared_bottleneck/norm/mul;context_transformer_0/kq_shared_bottleneck/norm/add;context_transformer_0/attention/key/einsum/Einsum;context_transformer_0/attention/key/add;context_transformer_0/attention/value/einsum/Einsum;context_transformer_0/attention/key/add/ReadVariableOp/resource1 f4 [32, 32]
0	0xbd1e89f7	-0.038705792
1	0xbe24608a	-0.16052452
2	0xbe3318a3	-0.17489867
3	0xbe6020bf	-0.21887492
4	0xbeaee75d	-0.3416089
5	0xbe1b2d34	-0.15153962
6	0x3d454c95	0.048168737
7	0xbd7d9fee	-0.0619201
8	0x3e1281f9	0.14307393
9	0xbdf3b661	-0.119000204
10	0xbc271c4d	-0.0101996185
11	0xbe97a206	-0.29615802
12	0xbcd7e791	-0.026355537
13	0x3e970ae7	0.29500505
14	0x3de57907	0.11204725
15	0x3e3ec351	0.18629195
16	0xbdfbffc2	-0.12304641
17	0xb85da9e8	-5.2848744e-05
18	0x3c2f7c55	0.010710795
19	0x3c93817f	0.018006084
20	0x3d84b57f	0.0647993
21	0x3dab4be8	0.08364087
22	0x3d355604	0.044271484
23	0x3d0f60c6	0.0350044
24	0xbc6af429	-0.014340439
25	0xbe5026c4	-0.20327288
26	0x3d610df4	0.054944947
27	0xbd72dfb1	-0.05929536
28	0xbd2c1bca	-0.04201869
29	0x3e0893d9	0.1333765
30	0x3eab7034	0.33484042
31	0x3e417b25	0.18894632
32	0x3d70c725	0.05878367
33	0x3e5c4939	0.21512307
34	0x3ea4dfac	0.32201898
35	0x3ea7966a	0.32731944
36	0x3f6f9982	0.9359361
37	0xbe41ab11	-0.18912913
38	0xbde1ce46	-0.11025672
39	0xbc228348	-0.009918995
40	0xbd6673c8	-0.05626276
41	0x3dd62a54	0.10457292
42	0x3e90c6fd	0.28276816
43	0x3ef99bce	0.48751682
44	0x3e266d48	0.16252625
45	0xbe59a7f8	-0.21255481
46	0x3d9cc19e	0.07654117
47	0x3e2aae3c	0.16668028
48	0x3dc04b30	0.09389341
49	0x3e57d1a0	0.2107606
50	0x3dc3d15b	0.09561416
51	0xbddd3bc0	-0.10802412
52	0xbd04a3f0	-0.032382905
53	0xbd87fcf8	-0.06640047
54	0xbd026673	-0.031835984
55	0xbe061463	-0.13093714
56	0x3e19181b	0.14950602
57	0x3d6bd84c	0.057579324
58	0xbbc56033	-0.0060234307
59	0x3e10b913	0.141331
60	0xbe259bc2	-0.16172698
61	0xbe85d040	-0.26135445
62	0xbe3f425c	-0.18677658
63	0xbe1cb813	-0.15304594
64	0xbf117c8e	-0.5683068
65	0x3ec93cc4	0.39304173
66	0x3e12ddad	0.14342375
67	0x3e099be3	0.13438372
68	0x3f2f6d10	0.6852579
69	0xbe9d5953	-0.3073221
70	0xbef0d02c	-0.47033823
71	0xbdf594aa	-0.11991246
72	0xbe46a246	-0.1939784
73	0x3dccff29	0.100096054
74	0x3f04c726	0.51866376
75	0x3eec9277	0.46205494
76	0xbddd9754	-0.10819879
77	0xbe501bcc	-0.20323104
78	0x3c107418	0.008816741
79	0xbedc0ac2	-0.42976958
80	0x3dbcee1c	0.09225103
81	0x3c97b0e3	0.018516963
82	0x3c720788	0.014772303
83	0xbda68038	-0.081299245
84	0x3d5b48ca	0.053536214
85	0x3d963083	0.073334716
86	0xbdef7bee	-0.116935596
87	0xbd6d54d5	-0.05794223
88	0xbe30f2c1	-0.17280103
89	0x3d0dd8d9	0.03463063
90	0x3c876ccc	0.01653137
91	0x3e46a94c	0.19400519
92	0xbea423a5	-0.32058445
93	0xbebff977	-0.37495014
94	0xbe3a9b54	-0.18223315
95	0x3eb3bd51	0.35105374
96	0xbe9b128d	-0.3028759
97	0x3d80dfeb	0.06292709
98	0x3ed1c40e	0.4096989
99	0x3c9dd54d	0.019266749
100	0xbedd6954	-0.4324442
101	0x3dc719a7	0.0972169
102	0xbe86c3de	-0.2632131
103	0xbea3b282	-0.31972128
104	0xbd9f15b9	-0.07767815
105	0x3e14b6d0	0.14522862
106	0x3ee2c633	0.4429184
107	0x3edc523f	0.430315
108	0xbe5ba19e	-0.21448371
109	0xbe8918bd	-0.26776686
110	0xbe74bf02	-0.23900989
111	0xbf52ff9c	-0.8242128
112	0x3eb64772	0.35601383
113	0xbeb12ac4	-0.3460294
114	0x3e9b16f5	0.30290952
115	0x3d4fe69c	0.050757036
116	0x3dc93e35	0.09826318
117	0xbb3360b8	-0.0027370881
118	0xbe3f8e57	-0.18706642
119	0x3e318ca1	0.17338802
120	0xbe84d2b0	-0.25941992
121	0x3d3aacf9	0.045575116
122	0x3e1ee0e7	0.15515481
123	0x3c258aa2	0.010103853
124	0xbdea80e9	-0.11450369
125	0xbec8b9a7	-0.39204141
126	0xbe8f049b	-0.279332
127	0x3e36a0cb	0.17834775
128	0xbebf7288	-0.37392068
129	0x3f1dbf2f	0.6161985
130	0x3ccf3891	0.025295528
131	0xbcf4d08f	-0.029884605
132	0x3e04666f	0.129297
133	0x3cb41b7c	0.021985762
134	0xbed78410	-0.42092943
135	0x3df5bce8	0.11998922
136	0xbe981871	-0.29706147
137	0x3e8a42f8	0.27004218
138	0x3e0a2cdd	0.13493676
139	0x3dfef7c6	0.12449603
140	0xbe961f7c	-0.29320896
141	0xbe55eeaf	-0.20891832
142	0xbe3b3445	-0.18281658
143	0xbec16e8d	-0.37779656
144	0xbe55da9c	-0.20884174
145	0x3e1dedf6	0.15422806
146	0xbf0e6485	-0.5562213
147	0xbd8423b4	-0.06452122
148	0xbe20bda8	-0.15697348
149	0xbe9dced9	-0.30821875
150	0x3ddb3d14	0.10705009
151	0xbdb4ec10	-0.08834088
152	0x3d0fe391	0.035129134
153	0x3e92d8a6	0.28680915
154	0xbe14e932	-0.14542082
155	0x3e0c3b69	0.13694538
156	0x3d93f64f	0.07224714
157	0x3e42609c	0.18982166
158	0xbec526fc	-0.38506305
159	0xbd944386	-0.072394416
160	0xbf3426aa	-0.70371497
161	0x3dc72326	0.09723501
162	0xbf51439e	-0.817438
163	0xbeb3792f	-0.35053393
164	0x3f650a44	0.8946879
165	0xbef2f6e1	-0.4745398
166	0xbe30630b	-0.17225282
167	0x3e9eb75c	0.30999267
168	0x3b9fac8b	0.0048728636
169	0x3cd5ba5c	0.02608984
170	0x3e04dc4a	0.12974659
171	0xbf3304e2	-0.69929326
172	0x3d946bff	0.07247161
173	0x3ea64e1f	0.32481477
174	0x3dc2936f	0.09500777
175	0x3e864253	0.26222476
176	0xbe437454	-0.19087344
177	0xbac3c343	-0.0014935512
178	0xbeff270a	-0.49834472
179	0x3add077a	0.001686319
180	0x3d93c7b5	0.072158255
181	0x3f2a04b6	0.6641344
182	0x3e098c5b	0.13432448
183	0x3d3d488c	0.046211764
184	0xbe077676	-0.13228783
185	0xbda21160	-0.0791347
186	0xbe746f10	-0.23870492
187	0x3d913ceb	0.07091697
188	0xbe29cc78	-0.16581905
189	0x3dd8cfb0	0.10586488
190	0x3ee45697	0.44597313
191	0x3f5b3b95	0.8563779
192	0xbdff501d	-0.12466452
193	0x3e0999d5	0.13437589
194	0xbec26b05	-0.37972274
195	0xbe20184f	-0.15634273
196	0x3ed2617a	0.41089994
197	0x3e85ab1a	0.26107103
198	0x3d8b2a73	0.06795206
199	0x3ebeb0ca	0.37244254
200	0xbe32ef29	-0.17474045
201	0x3e521697	0.2051643
202	0xbe6b825f	-0.22998951
203	0xbd9389b5	-0.07204
204	0x3e5900f5	0.21191771
205	0xbebda90e	-0.3704304
206	0xbe8ca087	-0.27466223
207	0xbe90cee2	-0.2828284
208	0x3e0ed481	0.13948251
209	0xbed2299c	-0.4104737
210	0xbd506b0d	-0.05088334
211	0x3d9b8250	0.075932145
212	0xbe28e7c8	-0.16494668
213	0x3d72f91c	0.0593196
214	0x3d1e6b39	0.038676474
215	0x3ea2472f	0.31694934
216	0x3db8f56e	0.09031187
217	0x3ed4bf83	0.41552362
218	0xbe94542d	-0.2897047
219	0x3d4db4f1	0.050221387
220	0x3ebd727b	0.37001404
221	0x3d884090	0.06652939
222	0xbed7440c	-0.42044103
223	0x3cd18a9a	0.025578786
224	0x3e2d3cc7	0.16917716
225	0x3d6e6712	0.058203764
226	0xbe3ccfbb	-0.18438618
227	0x3da212b5	0.07913724
228	0x3edbd6d9	0.42937353
229	0x3e705b07	0.23472224
230	0x3da714c0	0.081582546
231	0x3ebed24c	0.3726982
232	0xbdfa1273	-0.1221055
233	0x3e097512	0.13423565
234	0xbe2f33c2	-0.17109588
235	0x3e0b71c2	0.13617614
236	0x3e9a08db	0.3008488
237	0xbec7e0c6	-0.39038676
238	0xbe1a3b4c	-0.15061682
239	0xbd9767f9	-0.07392878
240	0x3d9c8c1f	0.076439135
241	0xbe93466f	-0.28764674
242	0x3e2fa7e8	0.17153895
243	0xbc898dd2	-0.016791258
244	0xbe17c52b	-0.14821307
245	0xbc35f333	-0.0111053465
246	0x3d7e0865	0.062019724
247	0x3e630edf	0.22173642
248	0x3e181eea	0.14855543
249	0x3ebe22ba	0.3713587
250	0xbe8aaddb	-0.27085766
251	0x3d84e916	0.0648977
252	0x3ea7c596	0.32767934
253	0x3d23c90c	0.039986655
254	0xbeda2f56	-0.4261424
255	0xbe22ad79	-0.15886487

context_transformer_0/kq_shared_bottleneck/norm/mul;context_transformer_0/kq_shared_bottleneck/norm/add;context_transformer_0/attention/query/einsum/Einsum;context_transformer_0/attention/query/add;context_transformer_0/attention/value/einsum/Einsum;context_transformer_0/attention/query/add/ReadVariableOp/resource;context_transformer_0/attention/Mul;context_transformer_0/attention/Mul/y f4 [32]
0	0x3ce8ec8a	0.028433103
1	0x3db5181d	0.0884249
2	0x3e764c93	0.24052648
3	0x3e11ff77	0.14257608
4	0x3d2e4606	0.04254725
5	0x3e0242be	0.12720773
6	0xbe069575	-0.13142951
7	0xbdd85f6e	-0.10565077
8	0xbbb1f34b	-0.005430614
9	0x3b80e6db	0.00393377
10	0xbd0633f9	-0.03276441
11	0x3bab8284	0.0052340645
12	0xbd6c81ab	-0.05774085
13	0x3e10f7ac	0.1415698
14	0x3dd05ba2	0.101737276
15	0x3d95f87d	0.07322786
16	0x3e55b411	0.20869471
17	0x3d376353	0.044772457
18	0xbe6acbcb	-0.22929303
19	0xbe0947f2	-0.13406351
20	0x3e10d098	0.14142072
21	0xbdfa4f65	-0.122221746
22	0x3e1350b9	0.14386262
23	0xbe623729	-0.22091354
24	0x3e2e30ef	0.17010854
25	0xbe228adb	-0.15873282
26	0x3e1b24ac	0.15150708
27	0xbe287877	-0.16452204
28	0xbe5cb3bd	-0.2155294
29	0xbe61ae29	-0.22039093
30	0xbdaa0b09	-0.08302886
31	0x3e352471	0.17689683

context_transformer_0/kq_shared_bottleneck/norm/mul;context_transformer_0/kq_shared_bottleneck/norm/add;context_transformer_0/attention/query/einsum/Einsum;context_transformer_0/attention/query/add;context_transformer_0/attention/value/einsum/Einsum;context_transformer_0/attention/query/add/ReadVariableOp/resource;context_transformer_0/attention/Mul;context_transformer_0/attention/Mul/y1 f4 [32, 32]
0	0xbc801f35	-0.01563988
1	0x3cb6b577	0.022303326
2	0xbac7613c	-0.0015211473
3	0xbbbb32dc	-0.00571285
4	0xbd006713	-0.0313483
5	0x3e288e6e	0.16460583
6	0x3d7d00fb	0.061768513
7	0x3c20efd8	0.009822808
8	0x3e4479a6	0.1918703
9	0x3d4d6070	0.050140798
10	0xbe38dfab	-0.18054073
11	0xbd970b0a	-0.073751524
12	0xbcd573b2	-0.026056144
13	0xbca92b36	-0.020650487
14	0xbd4a559a	-0.049398042
15	0x3c614336	0.0137489345
16	0x3d504abc	0.050852522
17	0xbd0ceaa8	-0.034403473
18	0x3c13b858	0.009016119
19	0x3d0a2314	0.03372486
20	0xbba205c0	-0.004944533
21	0x3d4bcc42	0.049755342
22	0x3b83afa5	0.004018741
23	0x3d6757a2	0.056480058
24	0xbd029abf	-0.03188586
25	0x3d8a031d	0.06738875
26	0x3bd50f5a	0.006502074
27	0xbd7494bf	-0.059712168
28	0x3cf8d93d	0.030377025
29	0xbd2c276c	-0.042029783
30	0xbd36b62a	-0.04460732
31	0xbd854b60	-0.06508517
32	0x3d67fb7a	0.05663631
33	0xbcc25061	-0.023719968
34	0x3e036c1e	0.12834212
35	0x3dfeff9d	0.12451098
36	0x3e75eb20	0.24015474
37	0xbe355511	-0.17708232
38	0xbd79e57e	-0.061009876
39	0xbdeceb15	-0.11568276
40	0xbe244c9a	-0.16044846
41	0xbceccd2f	-0.028906433
42	0x3e5bfec1	0.214839
43	0x3e078b98	0.13236845
44	0x3d5c010c	0.053711936
45	0xbc715c7b	-0.014731522
46	0x3db5a332	0.08869018
47	0x3d847466	0.06467514
48	0x3cac9e8b	0.021071693
49	0x3e0bdff9	0.13659658
50	0xbcd9a2ba	-0.026566852
51	0x3c3624dc	0.011117186
52	0xbcc63d0c	-0.024199031
53	0xbb14d0fe	-0.0022707577
54	0x3d310d65	0.043225665
55	0xbe33ccd4	-0.17558604
56	0x3da2f65c	0.079571456
57	0xbd9c1013	-0.076202534
58	0x3bef1547	0.0072962376
59	0x3d368761	0.0445627
60	0xbdc8ded4	-0.09808126
61	0xbcd5877a	-0.026065577
62	0x3cd44eab	0.025916418
63	0x3c7cb7be	0.015424667
64	0xbcad10b2	-0.021126125
65	0xbcdbe181	-0.026840927
66	0x3d6ed47a	0.058308102
67	0x3dd59386	0.104285285
68	0x3e41d5c2	0.18929198
69	0xbe5a3c06	-0.2131196
70	0xbdad14c7	-0.084512286
71	0xbd59fcc2	-0.053219564
72	0xbe1b9857	-0.15194832
73	0x3cb6cef2	0.022315476
74	0x3e975106	0.29554003
75	0x3d83bb3e	0.06432198
76	0xbcb51c67	-0.02210827
77	0xbd83da94	-0.06438175
78	0x3c05fa24	0.008177314
79	0x3c5c1e5a	0.013434971
80	0x3d867f4a	0.06567247
81	0xbdcc5c43	-0.09978535
82	0x3cdc8c26	0.026922297
83	0xbdb0e728	-0.086378396
84	0xbcc8fa24	-0.024533339
85	0x3d892ed1	0.06698383
86	0x3da1bb2e	0.0789703
87	0xbe34e314	-0.17664748
88	0xbd1d7ceb	-0.03844921
89	0xbd5b4104	-0.0535288
90	0x3d403318	0.046923727
91	0x3cb89e6c	0.022536479
92	0xbdd4ae0a	-0.10384758
93	0x3dc61722	0.09672381
94	0xbd7d0c96	-0.06177958
95	0x3e088120	0.13330507
96	0x39eef50c	0.00045577472
97	0xbd959bf9	-0.0730514
98	0x3d26741f	0.040638085
99	0x3bb0cadb	0.005395276
100	0xbe3c85c7	-0.18410407
101	0xbe15692b	-0.145909
102	0xbcb5bc5b	-0.022184541
103	0xbce280fb	-0.027649393
104	0xbe1723c6	-0.1475974
105	0xbcdd1ea9	-0.026992159
106	0x3e62bd96	0.22142634
107	0x3dbd3dd6	0.0924031
108	0xbd441853	-0.04787476
109	0xbd63a4c2	-0.055577047
110	0xbce989a9	-0.028508024
111	0xbdb8a24b	-0.0901533
112	0x3e1ec06c	0.1550309
113	0xbeb2dac5	-0.34932533
114	0x3e4c43fc	0.19947809
115	0xbe01c400	-0.12672424
116	0x3cf3f3a3	0.029779261
117	0xbdd9093a	-0.10597463
118	0x3cd76d99	0.026297377
119	0x3c86b5e3	0.016444152
120	0xbe00bde8	-0.12572443
121	0xbd0e9495	-0.034809668
122	0x3d25a699	0.040442083
123	0x3b90a4b8	0.0044141673
124	0x3bcf9dd8	0.006335955
125	0x3d833f91	0.06408609
126	0xbd0de0fa	-0.034638382
127	0x3de1d017	0.11026018
128	0xbd970482	-0.07373907
129	0x3d9c0f36	0.07620089
130	0xbd4ded4c	-0.050275132
131	0xbc4f127a	-0.0126386825
132	0xbd89c42a	-0.067268685
133	0xbe3d52e7	-0.18488656
134	0xbe0778af	-0.13229631
135	0x3d836389	0.06415469
136	0xbe1e7110	-0.15472817
137	0x3d0938b9	0.03350136
138	0x3e511a76	0.2042025
139	0xbd06cdcb	-0.032911103
140	0xbdf45055	-0.119293846
141	0xb90b8110	-0.00013304153
142	0xbc9ef72a	-0.019404966
143	0xbb91a6bb	-0.0044449246
144	0xbe317233	-0.1732872
145	0x3d8f8da5	0.070094384
146	0xbe30007b	-0.17187683
147	0xbe060101	-0.1308632
148	0xbd753f8e	-0.059875064
149	0xbd69ca9c	-0.05707799
150	0x3da11653	0.07865586
151	0xbe0401b5	-0.12891276
152	0x3cb13979	0.02163385
153	0x3c8ca40f	0.017168073
154	0x3bf9d569	0.0076243174
155	0x3d0c361f	0.0342313
156	0xbc8d5f72	-0.017257426
157	0x3e8ec4d6	0.2788455
158	0xbd905185	-0.070467986
159	0x3db7bbec	0.0897139
160	0xbd76d968	-0.06026593
161	0xbd1e7195	-0.03868254
162	0xbdf79d0f	-0.120905034
163	0xbd20d176	-0.039262258
164	0x3e9298b1	0.2863212
165	0xbd12d4b8	-0.035847396
166	0x3d5bcac0	0.053660154
167	0x3d26687b	0.040626984
168	0x3e49ef11	0.19720103
169	0x3d31685c	0.043312415
170	0xbd32d2eb	-0.04365818
171	0xbe8e37f5	-0.27777067
172	0xbbdf83fa	-0.0068211528
173	0x3cb2e7bc	0.021839015
174	0xbcdfdba4	-0.027326412
175	0x3d28341e	0.041065328
176	0xbce28e4d	-0.027655745
177	0x3cc9ea19	0.02464776
178	0xbe3a99f6	-0.18222794
179	0xbd05d0ae	-0.032669716
180	0xbcde6569	-0.027147966
181	0x3eda267b	0.42607483
182	0x3d01a1c6	0.03164842
183	0xbd0411e6	-0.03224363
184	0xbe02d07b	-0.12774841
185	0xbc95fb34	-0.01830826
186	0xbce06f7c	-0.02739691
187	0xbd42f4ca	-0.04759673
188	0xbcc48699	-0.023989962
189	0xbcc9d4f1	-0.024637671
190	0x3d33fa97	0.043940153
191	0x3ddfda71	0.10930336
192	0xbc06ca64	-0.008226965
193	0xba9da560	-0.0012027435
194	0xbe2ac0dc	-0.16675133
195	0xbd8a3771	-0.06748856
196	0x3d084653	0.03327019
197	0xbdc7f741	-0.09763957
198	0xbd2d6349	-0.042331014
199	0x3e0003b8	0.12501419
200	0xbe7837f3	-0.24240093
201	0xbdcc8266	-0.09985809
202	0x3e048d4a	0.12944523
203	0xbce5d23c	-0.02805435
204	0xbcc65380	-0.024209738
205	0x3d43157e	0.04762792
206	0x3d3a9cb7	0.04555961
207	0xbdcae589	-0.099070616
208	0xbe37011a	-0.17871514
209	0xbca4fd18	-0.020140216
210	0xbd8efbd8	-0.06981629
211	0xbd7c6cdc	-0.061627254
212	0x3d8008df	0.06251692
213	0x3db4e751	0.088331826
214	0xbd805940	-0.06267023
215	0xbcf609a3	-0.030033892
216	0xbd91474e	-0.070936784
217	0xbde13f3a	-0.10998388
218	0xbde83d11	-0.113397725
219	0x3daf77f0	0.08567798
220	0x3b282b42	0.002566055
221	0x3ce5660a	0.028002758
222	0x3dceac03	0.100914024
223	0x3dea80fe	0.114503846
224	0x3d4a913f	0.049454924
225	0xbd4ed873	-0.05049939
226	0xbdd4e09f	-0.103944056
227	0xbcd9eff1	-0.02660367
228	0x3d25b6c3	0.0404575
229	0xbdb26002	-0.08709718
230	0xbcf9a124	-0.030472346
231	0x3ddb4b5a	0.107077315
232	0xbe83b74a	-0.25725776
233	0xbdf3eb4f	-0.11910116
234	0x3dd1d4e2	0.10245682
235	0x3d916354	0.070990235
236	0xbc2d1688	-0.010564454
237	0x3d52bfa2	0.051452287
238	0x3dae0e06	0.084987685
239	0xbd997573	-0.07493105
240	0xbe20ae8c	-0.15691584
241	0x3d87b1cd	0.0662571
242	0xbd13e0d2	-0.036103077
243	0xbc90b040	-0.017662168
244	0x3d4846ef	0.048895773
245	0x3be2fe90	0.006927319
246	0xbd8f7b98	-0.070059955
247	0xbd530187	-0.05151513
248	0xbd231d2e	-0.03982275
249	0xbe098b11	-0.13431956
250	0xbdaebb88	-0.085318625
251	0x3d992706	0.07478146
252	0xbcc4e05b	-0.024032762
253	0x3b05a70c	0.0020393757
254	0x3db272db	0.08713313
255	0x3d544633	0.05182476

context_transformer_0/ffn_layer_0/intermediate_dense/einsum/Einsum;context_transformer_0/ffn_layer_0/intermediate_dense/Relu;context_transformer_0/ffn_layer_0/intermediate_dense/add f4 [32]
0	0xbd98dd31	-0.07464064
1	0xbdc88907	-0.09791761
2	0xbe023fd6	-0.12719664
3	0xbe3d1279	-0.18464078
4	0xbe32032b	-0.17384021
5	0xbec33b05	-0.38130966
6	0xbe862007	-0.2619631
7	0xbea18a95	-0.31551042
8	0xbe91cab3	-0.2847496
9	0xbeb8f189	-0.36121777
10	0xbe039862	-0.12851098
11	0xbed7a3a0	-0.42117023
12	0xbe41e7dc	-0.18936104
13	0xbe2c782f	-0.16842721
14	0xbe2b1a6f	-0.16709302
15	0xbea054c9	-0.31314686
16	0xbe866d7c	-0.26255405
17	0xbe106c1c	-0.1410374
18	0xbe829ea3	-0.25511655
19	0xbe8011ef	-0.25013682
20	0xbe5bf88f	-0.21481536
21	0xbe925691	-0.2858167
22	0xbdcf55ea	-0.10123809
23	0xbec0a9e9	-0.3762963
24	0xbebf51a2	-0.37366968
25	0xbed464c3	-0.41483125
26	0xbea0e2fa	-0.3142317
27	0xbe824a98	-0.25447536
28	0xbea80b28	-0.32821012
29	0xbe6c4878	-0.2307452
30	0xbeb88e6f	-0.36046168
31	0xbe8aed18	-0.27134013

context_transformer_0/attention/norm/mul;context_transformer_0/attention/norm/add;context_transformer_0/ffn_layer_0/intermediate_dense/einsum/Einsum;context_transformer_0/ffn_layer_0/intermediate_dense/Relu;context_transformer_0/ffn_layer_0/intermediate_dense/add f4 [32, 32]
0	0x3e7ece60	0.24883413
1	0xbd6d3e9e	-0.057921045
2	0x3d91b0f9	0.07113833
3	0xbd21213b	-0.03933833
4	0xbe55a345	-0.20863064
5	0xbd1485ed	-0.036260534
6	0xbea309fa	-0.3184355
7	0xbd620539	-0.055180762
8	0x3dfdd8c1	0.12394858
9	0x3e7f2323	0.24915747
10	0xbde00ced	-0.109399654
11	0xbd95f0b0	-0.07321298
12	0xbe552847	-0.20816146
13	0x3ac84e03	0.0015282038
14	0x3e8b0418	0.2715156
15	0xbc6e07b4	-0.014528204
16	0xbe47cee6	-0.19512519
17	0xbde0c635	-0.10975305
18	0xbf01c9cc	-0.5069854
19	0x3e13926f	0.14411329
20	0x3e9232b5	0.2855431
21	0x3d64ccf9	0.05585954
22	0xbca2abb1	-0.01985726
23	0xbe3b8c0c	-0.18315142
24	0x3de472f1	0.11154736
25	0x3dfe6027	0.12420683
26	0xbee4caa6	-0.44685858
27	0x3d0cd150	0.034379303
28	0x3efb1958	0.49042773
29	0xbe19d720	-0.1502347
30	0xbe7d3af5	-0.24729522
31	0xbe035390	-0.12824845
32	0x3ee4deff	0.44701383
33	0xbdbd04e9	-0.09229452
34	0x3eae3c6c	0.34030473
35	0xbe790c05	-0.24320991
36	0x3e20bcef	0.15697072
37	0x3d8f75ae	0.070048675
38	0x3dc3db8d	0.0956336
39	0x3dfbb7e7	0.12290936
40	0x3e302aa3	0.17203765
41	0x3e11018c	0.14160746
42	0xbd97eb60	-0.07417941
43	0x3ea95350	0.33071375
44	0xbe591fde	-0.21203563
45	0x3dfe637a	0.124213174
46	0x3d6875d3	0.05675299
47	0x3e25cd9b	0.16191714
48	0x3f1a0f74	0.6017983
49	0x3dfeeb45	0.12447218
50	0x3bfa374b	0.007635986
51	0xbdda21b1	-0.106509574
52	0xbdc899b8	-0.097949445
53	0xbe1f75a7	-0.15572225
54	0xbebc55b1	-0.36784127
55	0xbdff66d9	-0.124707885
56	0xbec91c91	-0.39279607
57	0x3d8e319e	0.069430575
58	0xbeac9acb	-0.33711848
59	0x3dfe8161	0.12427021
60	0x3e2cf56e	0.16890499
61	0x3e2dbaaf	0.16965745
62	0xbc218cb1	-0.009860204
63	0xbba781b0	-0.0051118955
64	0x3ce99bb7	0.028516633
65	0x3d648d70	0.055798948
66	0x3ce88bff	0.028387068
67	0xbcb17c6c	-0.021665774
68	0xba8dff1e	-0.0010833477
69	0xbc4c30ec	-0.012462836
70	0x3c805e4a	0.01566996
71	0x3b94c350	0.0045398846
72	0xbc0ab189	-0.008465179
73	0x3b8952e2	0.0041907886
74	0xbc2d919b	-0.010593797
75	0xbafcc805	-0.0019285685
76	0xbc99bdce	-0.018767264
77	0x3c158814	0.009126682
78	0x3b8a63fa	0.004223344
79	0xbca2a70f	-0.01985505
80	0xbc454a81	-0.012041689
81	0x3b851388	0.004061166
82	0x3cad9d43	0.021193152
83	0x3c0e3a54	0.008680899
84	0x3b592485	0.003313334
85	0x3d090265	0.03344955
86	0xbc24fbd4	-0.010069806
87	0xbca71896	-0.020397466
88	0x3c2afe03	0.010436538
89	0x3b2d6fa8	0.0026464257
90	0xba1f78a9	-0.00060833484
91	0x3c97ba42	0.018521432
92	0x3cd5fa63	0.02612037
93	0xbc2d077c	-0.010560866
94	0xbc69d63b	-0.014272268
95	0x3c710b5c	0.014712181
96	0x3e2d092f	0.16898035
97	0x3cd11a83	0.025525337
98	0x3d985ae2	0.074392095
99	0xbe3703fa	-0.1787261
100	0x3e9b7a13	0.30366573
101	0x3e891718	0.26775432
102	0xbd2983be	-0.041385405
103	0x3d269fdf	0.04067981
104	0x3dfeffe8	0.12451154
105	0x3e90e45f	0.28299233
106	0x3ef8a63f	0.48564336
107	0x3f1e44c8	0.618237
108	0xbe1d3766	-0.15353164
109	0xbd98eb93	-0.07466807
110	0xbe14c292	-0.14527348
111	0x3dbefccd	0.09325562
112	0xbe6d60fa	-0.23181525
113	0xbe17c92f	-0.14822839
114	0x3d31a4d6	0.04337009
115	0x3c190fde	0.009342162
116	0xbde5eae3	-0.11226442
117	0x3efdfbfa	0.49606305
118	0x3e33af6a	0.17547384
119	0xbe30ee38	-0.17278373
120	0x3e2a6bde	0.1664271
121	0x3da9adac	0.082850784
122	0xbe281db2	-0.16417578
123	0xbd945dca	-0.07244451
124	0x3d2c645c	0.042087898
125	0x3e368706	0.17824945
126	0x3e2f159b	0.17098086
127	0x3e04699b	0.1293091
128	0xbd8f01b1	-0.069827445
129	0xbdacd611	-0.084392674
130	0x3e8573e6	0.26064986
131	0xbd86f3e1	-0.06589485
132	0x3c806beb	0.01567646
133	0x3ea4f4d0	0.32218027
134	0x3e6f5d4c	0.23375434
135	0x3de6d14f	0.11270391
136	0xbec4ec72	-0.38461643
137	0x3e9d40c5	0.30713478
138	0x3eb730d3	0.35779437
139	0xbe2c17b7	-0.16805921
140	0xbe130072	-0.14355639
141	0x3dfa1010	0.12210095
142	0xbde515fe	-0.11185835
143	0xbebe84ff	-0.37210843
144	0x3b5e0cac	0.0033882065
145	0xbdacfdab	-0.08446821
146	0x3e549cb7	0.20762907
147	0xbe73efa2	-0.23821881
148	0xbda932b2	-0.082616225
149	0x3e89d3ee	0.26919502
150	0xbe81be69	-0.25340584
151	0xbbcaf682	-0.006193937
152	0x3e978678	0.2959478
153	0xbd006b73	-0.03135247
154	0xbd5f0a00	-0.054452896
155	0x3df419fc	0.119190186
156	0x3e203289	0.15644278
157	0x3da3d630	0.079998374
158	0xbe401887	-0.18759356
159	0xbcd8efdc	-0.026481561
160	0xbda8afff	-0.082366936
161	0x3e4b47f1	0.19851662
162	0xbdbf8678	-0.0935182
163	0xbd909880	-0.07060337
164	0x3e3c18da	0.18368855
165	0x3e5fabb3	0.21842842
166	0xbc8cf93b	-0.017208686
167	0xbe1e88a5	-0.15481813
168	0x3e045a6e	0.12925121
169	0xbe28357c	-0.16426653
170	0x3b988614	0.0046546552
171	0x3e951ca5	0.29123417
172	0xbe5d994f	-0.21640514
173	0x3ea4e063	0.32202443
174	0xbda3424a	-0.07971628
175	0x3df7ef4e	0.121061906
176	0x3da4e90a	0.08052261
177	0xbd56838e	-0.052371554
178	0x3da28f8e	0.07937537
179	0xbe475c3c	-0.19468778
180	0xbe294ede	-0.16533992
181	0x3d0ef57b	0.034902077
182	0xbe384437	-0.17994772
183	0x3eec3113	0.4613119
184	0x3e507d2a	0.20360246
185	0x3e432957	0.19058739
186	0x3e81eb6e	0.2537493
187	0x3a6905da	0.00088891166
188	0xbd41b958	-0.0472959
189	0xbe7c0e9e	-0.24614951
190	0xbe098d6c	-0.13432854
191	0x3df15010	0.11782849
192	0x3dc45e59	0.09588308
193	0xbccf77fb	-0.025325766
194	0xbe1ee2b6	-0.15516171
195	0xbe1c4a4c	-0.15262717
196	0xbe5f1768	-0.21786273
197	0x3e929c60	0.2863493
198	0xbe180503	-0.14845662
199	0xbea0956f	-0.3136401
200	0x3e34aa8e	0.17643186
201	0xbd909e04	-0.07061389
202	0x3e2b553f	0.16731738
203	0x3ea93444	0.33047688
204	0xbd4dc045	-0.05023219
205	0x3e52a011	0.20568873
206	0x3b6abd93	0.0035818561
207	0x3e7e53ac	0.24836606
208	0x3e30b8af	0.17257951
209	0x3cbf55c4	0.023356326
210	0xbe81084c	-0.25201643
211	0x3c26e103	0.010185483
212	0xbe21fccf	-0.15819095
213	0x3e243a95	0.16037972
214	0xbe435dbd	-0.19078727
215	0x3f2490bf	0.64283365
216	0x3dfd18d2	0.1235825
217	0x3e0891e3	0.13336901
218	0xbc8e423e	-0.017365571
219	0xbd89c2bc	-0.06726596
220	0xbd4831c8	-0.0488756
221	0xbdcebf3d	-0.100950696
222	0x3c0ef277	0.0087248
223	0xbd572177	-0.05252215
224	0xbc02dbf3	-0.00798701
225	0x3e999887	0.29999182
226	0x3e081453	0.13289003
227	0x3eaa16f0	0.33220625
228	0xbec6558e	-0.38737148
229	0x3e9267bd	0.2859477
230	0x3d0af329	0.0339233
231	0xbce80628	-0.028323248
232	0xbe582008	-0.21105969
233	0x3df819b3	0.12114277
234	0x3e2640fe	0.1623573
235	0x3de55cd1	0.11199344
236	0xbee73944	-0.45160878
237	0xbea2d2ef	-0.31801555
238	0xbdc021af	-0.09381425
239	0xbce06a50	-0.027394444
240	0xbe245cb6	-0.16050991
241	0xbeaaae99	-0.33336332
242	0xbdcb23a2	-0.09918906
243	0x3dc1aa3f	0.094563
244	0xbef8f035	-0.48620763
245	0x3e2d248c	0.16908473
246	0x3c2f92ef	0.010716184
247	0x3e100362	0.1406379
248	0xbd0544ae	-0.0325362
249	0x3b5aa0d0	0.0033360012
250	0xbdd661d8	-0.10467881
251	0x3e0da6ba	0.13833132
252	0xbd882a30	-0.066486716
253	0x3e3fc3ec	0.18727082
254	0xbd96ec18	-0.0736925
255	0xbd9b5df9	-0.07586283

context_transformer_0/ffn_layer_1/intermediate_dense/einsum/Einsum;context_transformer_0/ffn_layer_1/intermediate_dense/Relu;context_transformer_0/ffn_layer_1/intermediate_dense/add f4 [32]
0	0xbe500096	-0.20312724
1	0xbe0a040f	-0.1347811
2	0xbe142106	-0.14465722
3	0xbe5232d8	-0.20527208
4	0xbf0a674a	-0.54063857
5	0xbea3b69a	-0.3197525
6	0xbe345f7c	-0.1761455
7	0xbe3e4d1f	-0.18584107
8	0xbd2c814b	-0.04211549
9	0xbea3a694	-0.31963027
10	0xbd33fe3e	-0.043943636
11	0xbe83ba92	-0.2572828
12	0xbe065150	-0.13116956
13	0xbd78e961	-0.060769442
14	0xbde43ae5	-0.11144046
15	0xbe850e64	-0.25987542
16	0xbe69b451	-0.22822692
17	0xbe81c508	-0.25345635
18	0xbe8d526c	-0.27601945
19	0xbd842479	-0.06452269
20	0xbeacfdf7	-0.3378751
21	0xbe07461b	-0.13210337
22	0xbe83aa70	-0.2571597
23	0xbe692fd6	-0.22772154
24	0xbe29c0ba	-0.16577426
25	0xbe478f99	-0.19488372
26	0x3d47b41d	0.048755754
27	0xbdbc1dfe	-0.09185408
28	0xbda0d981	-0.078539856
29	0xbdffebb1	-0.124961264
30	0xbe2d5e48	-0.16930497
31	0xbe3a4274	-0.18189412

context_transformer_0/ffn_layer_0/norm/mul;context_transformer_0/ffn_layer_0/norm/add;context_transformer_0/ffn_layer_1/intermediate_dense/einsum/Einsum;context_transformer_0/ffn_layer_1/intermediate_dense/Relu;context_transformer_0/ffn_layer_1/intermediate_dense/add f4 [32, 32]
0	0x3e733a03	0.23752598
1	0x3eeee719	0.4666069
2	0x3d29409e	0.04132139
3	0xbdad6400	-0.08466339
4	0x3cee1be8	0.029066041
5	0x3bb8924e	0.0056326753
6	0x3c10bca7	0.008834041
7	0x3da72d57	0.08162945
8	0x3ed2d6f9	0.41179636
9	0xbd63ea0d	-0.05564313
10	0x3e3fbb0f	0.18723701
11	0xbe9d5196	-0.30726308
12	0x3dbc870c	0.09205446
13	0x3e80d65f	0.25163552
14	0x3d61c94f	0.055123623
15	0x3cda8c98	0.026678368
16	0xbdec7def	-0.115474574
17	0x3d80ebf8	0.062950075
18	0xbe6ee003	-0.23327641
19	0x3b9c75e3	0.0047747954
20	0xbcb15d27	-0.021650864
21	0xbda078fa	-0.078355744
22	0xbdc076ca	-0.09397657
23	0xbdb77612	-0.08958067
24	0x3d7036fb	0.058646183
25	0x3a9fe72d	0.0012199633
26	0x3ea271c7	0.3172743
27	0x3ce534fe	0.02797937
28	0x3d5169a6	0.051126145
29	0xbdaea15a	-0.08526869
30	0xbd6ab5ed	-0.057302404
31	0x3eddaf97	0.43298027
32	0xbdd9f1c6	-0.10641818
33	0xbe34ef89	-0.176695
34	0xbe408f2a	-0.18804613
35	0x3e0a1684	0.13485152
36	0xbe835c0d	-0.25656167
37	0x3d5fb1e3	0.054613005
38	0xbc9c0413	-0.019044911
39	0xbe07a44f	-0.13246273
40	0x3dab292c	0.08357462
41	0xbe9815d9	-0.29704168
42	0xbe766f02	-0.24065784
43	0x3e899dad	0.2687811
44	0xbe7757ac	-0.24154538
45	0x3e9464b9	0.28983095
46	0x3c8eec8e	0.017446782
47	0x3e8c74be	0.27432817
48	0xbdd2e272	-0.10297097
49	0xbe45826e	-0.19288036
50	0xbb0adb05	-0.0021187675
51	0x3ba67a70	0.0050805137
52	0x3e17736e	0.14790127
53	0x3d8be7df	0.06831335
54	0xbe810adf	-0.25203606
55	0x3e100767	0.14065324
56	0x3eb9d076	0.36291856
57	0x3c023667	0.007947541
58	0xbe8dcabd	-0.2769374
59	0xbcd80898	-0.026371285
60	0xbea6eeec	-0.32604158
61	0x3dbe6814	0.09297195
62	0x3cdee3cd	0.027208233
63	0xbdba9eb3	-0.09112301
64	0x3e28548e	0.16438505
65	0x3ee4497e	0.4458732
66	0x3eed4cb3	0.4634758
67	0x3d7e91ae	0.06215065
68	0x3e8c1f80	0.27367783
69	0x3ec173e2	0.37783724
70	0x3df4db03	0.11955836
71	0x3cb364c9	0.021898644
72	0x3d31b35d	0.043383945
73	0x3e4b8bc3	0.19877534
74	0x3e4a5af4	0.19761258
75	0xbdcc2362	-0.09967686
76	0x3b58e507	0.0033095495
77	0xbc5b9222	-0.01340154
78	0x3deee492	0.1166469
79	0xbed3c253	-0.41359195
80	0x3d99aaf8	0.07503313
81	0x3e8d2293	0.2756544
82	0xbc77e575	-0.01513039
83	0xbd5ad4d9	-0.053425644
84	0x3de3c5b2	0.11121692
85	0xbdcd6127	-0.10028296
86	0x3e446e0f	0.19182609
87	0x3e35c674	0.17751485
88	0xbe8d392f	-0.2758269
89	0x3d6404cf	0.05566865
90	0xbcc6302d	-0.024192894
91	0xbdf5b2da	-0.11997004
92	0xbe1ec8b4	-0.1550625
93	0xbe849e41	-0.25901988
94	0x3d4c28c0	0.04984355
95	0x3dfe152e	0.124063835
96	0x3e2b00ea	0.16699567
97	0xbdd62220	-0.104557276
98	0x3da9a593	0.08283534
99	0x3e186f6b	0.14886253
100	0xbe7fdb1b	-0.24985926
101	0xbdaa0281	-0.08301259
102	0x3d00f7e5	0.03148641
103	0x3da2f545	0.07956938
104	0xbdd52625	-0.10407666
105	0x3e4177a1	0.18893291
106	0x3d01a962	0.031655677
107	0x3cdedc1d	0.027204568
108	0x3d4635ee	0.048391275
109	0x3d11302c	0.03544633
110	0x3e3845c5	0.17995365
111	0x3d9aa17f	0.07550334
112	0x3cba4ba9	0.022741156
113	0xbe66c07d	-0.22534366
114	0x3e182d1b	0.14860956
115	0x3e221693	0.15828924
116	0x3e1ece78	0.15508449
117	0xbe0d399d	-0.13791509
118	0xbe1ca6b5	-0.15297969
119	0x3dc33d9a	0.09533234
120	0x3d7df969	0.062005434
121	0xbd550966	-0.052010916
122	0xbc8737f4	-0.016506173
123	0xbd5ba0ba	-0.053620078
124	0x3de9d78f	0.11418068
125	0xbb8408e4	-0.00402938
126	0xbe19507f	-0.14972113
127	0xbc1deee3	-0.009639475
128	0xbd64796b	-0.055779856
129	0xbda52d6e	-0.08065306
130	0xbe248d17	-0.16069447
131	0x3e302f41	0.17205526
132	0xbe930e1a	-0.28721696
133	0xbe8e33bd	-0.27773848
134	0xbf01b957	-0.5067343
135	0xbf2ebfaa	-0.68261206
136	0xbe911ac8	-0.28340745
137	0xbdc3f73e	-0.09568642
138	0x3da3dcd7	0.08001106
139	0x3d09b989	0.033624206
140	0xbf02ed1e	-0.5114306
141	0x3daabae9	0.083364315
142	0x3e45542b	0.19270389
143	0x3e26b2d2	0.16279152
144	0x3d17cd94	0.03706129
145	0x3dee462f	0.1163448
146	0xbda95759	-0.08268613
147	0x3d749332	0.05971069
148	0x3e210385	0.15723999
149	0x3d6ee2a8	0.058321625
150	0xbf030e7a	-0.51193964
151	0x3e7a3417	0.24433933
152	0xbc60ce8d	-0.013721121
153	0xbe9450cb	-0.2896789
154	0xbeb5e143	-0.35523424
155	0xbc47f1e7	-0.01220367
156	0xbd947fbd	-0.07250927
157	0xbec8242c	-0.39090097
158	0x3dda6dae	0.10665451
159	0x3b8fe46b	0.004391243
160	0x3e08ae14	0.13347656
161	0x3de8b932	0.11363448
162	0x3d8a54eb	0.06754478
163	0x3de063ff	0.10956573
164	0xbe0f22e8	-0.1397816
165	0x3df14179	0.11780066
166	0x3e50a1d2	0.2037423
167	0xbc1b6dbf	-0.009486615
168	0x3db28be4	0.08718088
169	0x3c43ec38	0.011958174
170	0xbe0c1641	-0.13680364
171	0xbe5ba4f6	-0.21449646
172	0xbdd6bd9d	-0.104853846
173	0x3e6d6e21	0.23186542
174	0xbbcc32da	-0.006231648
175	0x3e9013d1	0.2814012
176	0x3e28b27e	0.1647434
177	0xbc882a52	-0.016621742
178	0x3dada432	0.084785834
179	0xbcad083e	-0.021122094
180	0x3cf44450	0.02981773
181	0xbe0ba08c	-0.13635463
182	0xbde3c664	-0.111218244
183	0x3e7fea22	0.24991658
184	0x3d8af7da	0.06785555
185	0xbe791b59	-0.24326839
186	0xbcb4a607	-0.022051824
187	0x3e50511c	0.20343441
188	0xbc7aaf05	-0.015300517
189	0x3cd6b6e7	0.026210262
190	0x3e39f048	0.18158066
191	0x3ebece3b	0.37266716
192	0x3db86897	0.09004324
193	0xbeb0dcf8	-0.34543586
194	0x3dd8882d	0.105728485
195	0xbe5781d6	-0.21045622
196	0x3dc0902e	0.094025
197	0x3e03f7f9	0.12887563
198	0xbe826082	-0.25464255
199	0xbef39d6c	-0.4758104
200	0x3dcee87b	0.10102936
201	0x3e07a645	0.1324702
202	0xbdf5af86	-0.11996369
203	0x3e97f050	0.2967553
204	0xbe37c5cc	-0.17946547
205	0x3cabdf8e	0.020980623
206	0x3e7e720f	0.24848197
207	0x3e778ad5	0.24174054
208	0x3e9d8817	0.3076789
209	0xbe2650b4	-0.16241723
210	0xbda9a0ed	-0.08282647
211	0x3d2ba874	0.041908696
212	0xbd21d0ad	-0.03950565
213	0x3d880300	0.06641197
214	0xbe205379	-0.15656842
215	0xbcae2a7f	-0.021260498
216	0x3e32d84c	0.17465323
217	0x3e6cfe69	0.23143925
218	0xbdc23729	-0.09483177
219	0xbe2d5b32	-0.1692932
220	0xbcdacbc8	-0.026708499
221	0xbf00ef3f	-0.5036506
222	0xbe12b0f0	-0.14325309
223	0x3c86e30a	0.016465683
224	0x3d8a13d3	0.067420624
225	0x3d9ed599	0.07755584
226	0x3d655535	0.055989463
227	0x3cb2b9b1	0.02181706
228	0x3e25d6fc	0.16195291
229	0x3ce101e2	0.027466718
230	0xbe480646	-0.19533643
231	0x3bc0e06e	0.005886129
232	0x3cd8c38f	0.026460437
233	0x3ecd460d	0.40092507
234	0x3ccf7306	0.025323402
235	0xbe1c7a3f	-0.15281008
236	0xbf678657	-0.9043936
237	0x3e12f8c3	0.14352708
238	0x3e8023e2	0.25027376
239	0xbd2f16f9	-0.042746518
240	0xbdb36aa3	-0.08760574
241	0xbcc5f46a	-0.024164397
242	0xbd719041	-0.058975462
243	0xbd914f57	-0.07095211
244	0x3e2c43fe	0.16822812
245	0x3daac6e1	0.083387144
246	0xbdb04fac	-0.08608946
247	0xbdce1016	-0.10061662
248	0xbb295954	-0.0025840597
249	0xbdb5cbff	-0.088768
250	0x3e1ade0b	0.15123765
251	0x3e8dfa49	0.27730015
252	0xbb12790d	-0.0022349984
253	0xbdbf9d1b	-0.09356137
254	0xbe8246cf	-0.25444648
255	0xbb3cab45	-0.0028788608

context_transformer_0/ffn_layer_2/intermediate_dense/einsum/Einsum;context_transformer_0/ffn_layer_2/intermediate_dense/Relu;context_transformer_0/ffn_layer_2/intermediate_dense/add f4 [32]
0	0xbdf893f1	-0.121375926
1	0xbdb98e91	-0.090603955
2	0xbe65643e	-0.2240152
3	0xbe804f06	-0.2506029
4	0xbe45d15a	-0.19318143
5	0xbe8b6beb	-0.27230772
6	0x3d896b79	0.06709952
7	0xbd80a80d	-0.06282053
8	0xbe52232f	-0.20521234
9	0xbda5ab11	-0.08089269
10	0xbd80ce29	-0.06289322
11	0xbe0bb31f	-0.13642548
12	0xbe15c6d2	-0.14626625
13	0xbd8ddce2	-0.06926896
14	0xbdbcf9c8	-0.092273295
15	0xbc86880b	-0.016422292
16	0xbe571302	-0.21003345
17	0xbd8a4541	-0.067514904
18	0xbd9cc0d7	-0.07653969
19	0x3d2da384	0.04239227
20	0xbe566081	-0.20935251
21	0x3d164bf1	0.036693517
22	0xbdb143cd	-0.0865551
23	0x3cb5387c	0.02212166
24	0xbe33e653	-0.1756833
25	0xbe4d4a5d	-0.20047899
26	0xbe1360a7	-0.14392339
27	0xbe6e7f33	-0.2329071
28	0xbe27a96f	-0.16373228
29	0xbeb8fc87	-0.36130163
30	0xbeafdcf4	-0.3434826
31	0xbe024dd8	-0.12725008

context_transformer_0/ffn_layer_1/norm/mul;context_transformer_0/ffn_layer_1/norm/add;context_transformer_0/ffn_layer_2/intermediate_dense/einsum/Einsum;context_transformer_0/ffn_layer_2/intermediate_dense/Relu;context_transformer_0/ffn_layer_2/intermediate_dense/add f4 [32, 32]
0	0xbe066ba8	-0.13127005
1	0x3d7015c1	0.058614496
2	0xbc93bc5a	-0.018034149
3	0x3e1ea938	0.1549424
4	0x3e9e8ee1	0.30968383
5	0xbcdaa1b4	-0.026688434
6	0x3de0b911	0.109727986
7	0x3db0c338	0.08630985
8	0xbe2222d1	-0.15833594
9	0xbd686ca2	-0.056744225
10	0xbad80878	-0.0016482016
11	0xbd85ab97	-0.06526869
12	0x3d9c8db1	0.07644213
13	0x3e164f2e	0.14678642
14	0x3c3a9910	0.011389032
15	0xbd030061	-0.031982783
16	0xbdbf894d	-0.0935236
17	0x3e9ea4ec	0.309852
18	0x3e078ffd	0.13238521
19	0x3dad5766	0.084639356
20	0x3e1a3e63	0.15062861
21	0xbe83379b	-0.2562836
22	0xbe203911	-0.15646769
23	0x3c82aa3e	0.015950318
24	0x3d9f7e1c	0.07787725
25	0xbcc2a239	-0.023758994
26	0xbcc616da	-0.024180818
27	0xbdd4c418	-0.103889644
28	0xbceac7f4	-0.028659798
29	0x3e37ea46	0.17960462
30	0x3e2fa670	0.17153335
31	0x3ec0c7a3	0.3765231
32	0x3d65b943	0.056084882
33	0xbe05ce5a	-0.13066998
34	0x3e282e63	0.16423945
35	0x3dd2c42e	0.102913246
36	0x3e568a9c	0.20951313
37	0x3e644f20	0.22295809
38	0xbcb460df	-0.022018848
39	0x3e107b26	0.14109477
40	0xbec5252e	-0.38504928
41	0xbccc1509	-0.024912374
42	0x3e208669	0.15676273
43	0x3d8b79e5	0.06810359
44	0xbe19ca02	-0.15018466
45	0xbdeb201e	-0.11480735
46	0xbe4bce41	-0.19902898
47	0xbc809e0e	-0.015700366
48	0x3d96d235	0.073643126
49	0x3ce664e6	0.028124284
50	0xbe05f10f	-0.13080238
51	0x3db047f5	0.08607475
52	0xbdb8d07d	-0.09024141
53	0xbe186ba5	-0.14884813
54	0x3cd6ad02	0.026205543
55	0x3dba0661	0.09083248
56	0xbe7fb387	-0.24970828
57	0xbd9db3e2	-0.077003255
58	0x3c1f6f86	0.009731179
59	0x3c61b554	0.013776142
60	0xbe28a2ed	-0.16468401
61	0xbd14d6c9	-0.036337648
62	0xbef22347	-0.4729254
63	0x3d2ecfcd	0.042678643
64	0xbe58d3e6	-0.21174583
65	0x3ec0bcb0	0.37643957
66	0xbe7b698d	-0.24551983
67	0x3e756179	0.23962964
68	0x3e670f80	0.22564507
69	0x3e710975	0.23538764
70	0xbc095427	-0.00838188
71	0x3bfcc468	0.007713843
72	0xbc6cf22a	-0.014462033
73	0xbe23e619	-0.16005744
74	0xbd7a5984	-0.061120525
75	0xbd41397b	-0.04717396
76	0xbd7cd1d4	-0.061723545
77	0xbcc82a7b	-0.024434319
78	0xbb9f5d48	-0.004863415
79	0xbe42ce8d	-0.19024105
80	0xbcd292c6	-0.025704753
81	0x3e30d1c0	0.17267513
82	0x3e782745	0.2423373
83	0xbda9cd26	-0.08291082
84	0x3d24f27f	0.040270325
85	0xbc55d578	-0.013051383
86	0xbcdd3854	-0.027004398
87	0x3bf3fed7	0.0074461508
88	0xbddd41a0	-0.108035326
89	0xbe5c803e	-0.21533296
90	0x3de2d37e	0.11075495
91	0xbce46242	-0.027878884
92	0xbe160ab4	-0.1465252
93	0xbd516148	-0.051118165
94	0x3df39d72	0.11895265
95	0x3da64928	0.08119422
96	0xbe79c799	-0.24392547
97	0x3db29a2a	0.08720811
98	0x3d88616b	0.06659206
99	0xbd2505cb	-0.040288728
100	0x3c2385c1	0.00998062
101	0xbdfa1e29	-0.12212784
102	0xbd0d225d	-0.0344566
103	0x3d1b9107	0.037980106
104	0xbec6982e	-0.3878798
105	0xbdb8b2a4	-0.09018448
106	0xbd2557c6	-0.04036691
107	0xbe809fec	-0.2512201
108	0xbc200d21	-0.009768755
109	0xbdbf2d69	-0.09334833
110	0x3dcd7403	0.10031893
111	0x3e062c02	0.13102725
112	0xbd4eb97f	-0.05046987
113	0xbeb10195	-0.3457152
114	0xbe3660cf	-0.17810367
115	0xbe276d0e	-0.16350195
116	0x3e2a2b55	0.16618092
117	0xbd204641	-0.0391295
118	0xbe0007cb	-0.12502973
119	0x3ebea47a	0.3723486
120	0x3da86d8f	0.08224022
121	0xbe10394c	-0.14084357
122	0x3dadae0c	0.084804624
123	0x3e4014d0	0.1875794
124	0x3ea60eb6	0.324331
125	0x3dec0026	0.11523466
126	0x3eba8ec8	0.36437058
127	0x3e57b351	0.21064498
128	0xbba28605	-0.004959824
129	0xbc11a3b2	-0.008889126
130	0xbd3e2fee	-0.046432428
131	0xbd821d66	-0.063532636
132	0xba61c541	-0.0008612462
133	0x3c9a79c5	0.018856892
134	0xbe0caac0	-0.13737011
135	0xbe370e5d	-0.17876573
136	0xbcf518be	-0.029919025
137	0x3e5c8293	0.21534185
138	0xbe367bdc	-0.17820686
139	0xbe1859c5	-0.14877994
140	0xbf794e0d	-0.9738472
141	0x3dcb0163	0.09912374
142	0x3e2922de	0.16517207
143	0x3cfeaf22	0.03108937
144	0x3dfd4b19	0.12367839
145	0xbd6c22d7	-0.057650413
146	0xbd32c119	-0.043641184
147	0x3bf2e680	0.0074127316
148	0x3d287b2a	0.041133083
149	0x3e47a30e	0.19495794
150	0x3df6433b	0.12024542
151	0xbe17afb6	-0.14813122
152	0xbd7f6be4	-0.062358752
153	0xbe4ce493	-0.20009069
154	0xbdff56af	-0.124677055
155	0x3ef19d8e	0.47190517
156	0xbdbef7a2	-0.09324576
157	0xbda6b739	-0.08140416
158	0xbe7ddd72	-0.24791506
159	0x3ddc622e	0.10760914
160	0x3d6d4341	0.057925466
161	0x3eab1f70	0.33422422
162	0xbe7ded5f	-0.24797581
163	0x3e8ae4ff	0.27127835
164	0xbd159789	-0.03652147
165	0x3daf1daf	0.085505836
166	0xbe7fcff3	-0.2498167
167	0xbe2703aa	-0.16309991
168	0xbe567dde	-0.20946452
169	0x3e274b70	0.16337371
170	0xbde9d554	-0.11417642
171	0x3dda77c2	0.10667373
172	0xbe391ded	-0.18077822
173	0x3e529e0a	0.205681
174	0x3e79e022	0.24401906
175	0x3dc4d631	0.09611166
176	0x3ea0407d	0.312992
177	0x3ddf3a18	0.108997524
178	0xbb1fb917	-0.0024371797
179	0x3d299dcb	0.04141025
180	0xbc17b1a5	-0.009258662
181	0x3ea8e034	0.32983553
182	0x3e4f436c	0.20240563
183	0x3dc93c13	0.098259114
184	0x3e533d58	0.2062887
185	0xbd95d42f	-0.073158614
186	0xbc95a324	-0.018266268
187	0x3e550ca3	0.20805602
188	0xbd85ccd6	-0.0653321
189	0xbe5656a8	-0.20931494
190	0x3d5d0bf1	0.053966466
191	0x3def07c8	0.11671406
192	0x3e73ab2a	0.23795763
193	0x3ddc2e8a	0.10751064
194	0xbe8be8f4	-0.27326167
195	0x3e3bdcaf	0.18345903
196	0xbd9a5927	-0.07536536
197	0x3e1d0fa6	0.15338
198	0xbed9168e	-0.4240002
199	0xbe512d82	-0.20427516
200	0xbd67d086	-0.056595348
201	0x3e053902	0.13010028
202	0xbd7ec70d	-0.06220155
203	0x3ca14c14	0.019689597
204	0x3d82672c	0.06367335
205	0xbb021fc0	-0.001985535
206	0x3e94936f	0.29018733
207	0xbd0174bc	-0.031605467
208	0x3e1c1a0d	0.15244313
209	0xbe103cd1	-0.140857
210	0xba84b40d	-0.001012446
211	0x3e832943	0.25617418
212	0x3db30a92	0.087422505
213	0xbcd5107a	-0.026008833
214	0x3ce0c5a0	0.027437985
215	0xbe37db78	-0.17954814
216	0x3e46802c	0.19384831
217	0x3e1ff72f	0.15621637
218	0xbd2ed8eb	-0.042687338
219	0x3d2ae721	0.041724328
220	0x3d890061	0.066895254
221	0xbe0f726f	-0.14008497
222	0x3e1d3121	0.15350772
223	0xbe2deb03	-0.16984181
224	0xbe226f36	-0.15862736
225	0xbdb9b079	-0.090668626
226	0x3dddacc4	0.10823968
227	0xbe26e15d	-0.16296907
228	0x3cb0e83b	0.021595111
229	0x3e51ab9b	0.20475619
230	0xbd8b639c	-0.06806108
231	0xbd51065c	-0.051031455
232	0x3a1c1071	0.00059533777
233	0xbdbc925d	-0.09207604
234	0x3b8e8fb4	0.004350627
235	0x3ea8253a	0.32840902
236	0xbd5a423a	-0.053285815
237	0x3d9f0b38	0.07765812
238	0xbddc6133	-0.10760727
239	0xbe7896af	-0.24276231
240	0xbe8a619e	-0.270276
241	0xbe1f2cb0	-0.1554439
242	0xbe2a823d	-0.16651244
243	0xbce2a052	-0.027664337
244	0xbe371ba5	-0.1788164
245	0xbc726fbd	-0.014797148
246	0x3e04d80b	0.12973039
247	0xbcab0efd	-0.02088117
248	0x3de4366a	0.11143191
249	0xbdffa3b3	-0.12482395
250	0xbcb6ec7d	-0.022329563
251	0x3e27ac3a	0.16374293
252	0x3db1c675	0.08680431
253	0xbe0d611d	-0.13806577
254	0x3ddbac3d	0.10726211
255	0x3e88fb57	0.26754257

context_transformer_0/ffn_layer_3/intermediate_dense/einsum/Einsum;context_transformer_0/ffn_layer_3/intermediate_dense/Relu;context_transformer_0/ffn_layer_3/intermediate_dense/add f4 [32]
0	0xbe1ebf4a	-0.15502658
1	0xbe5464ca	-0.20741573
2	0xbdd50db0	-0.10403001
3	0xbe24e87c	-0.16104311
4	0xbe140541	-0.14455129
5	0xbdb0e8e2	-0.08638169
6	0xbd85efa3	-0.06539848
7	0x3b1454d7	0.0022633576
8	0xbd94c4c0	-0.072640896
9	0xbe2f09ae	-0.17093536
10	0xbe0e7f49	-0.13915743
11	0xbe95d12a	-0.29261142
12	0xbe5ee192	-0.21765736
13	0xbd96c623	-0.0736201
14	0xbe2e3b80	-0.17014885
15	0xbe0a11f3	-0.1348341
16	0xbdd98363	-0.10620763
17	0xbda585f5	-0.08082191
18	0xbdc19d36	-0.09453814
19	0xbdc98b4a	-0.098410204
20	0xbe10b56e	-0.1413171
21	0xbedb5141	-0.4283543
22	0xbdb52fc0	-0.08846998
23	0xbe666e50	-0.22503018
24	0xbe5bd6cc	-0.21468657
25	0xbdc6dc92	-0.09710039
26	0xbeac5a17	-0.33662483
27	0xbe1872f5	-0.14887603
28	0xbdc5517c	-0.096346825
29	0xbd1502f2	-0.036379762
30	0xbe173d85	-0.14769562
31	0xbde67697	-0.11253088
